src/results/q5_linear/model.weights.pt (torch, 3071 bytes, 2 tensors)

weight f4 [5, 100]
0	0xbe7f20bb	-0.2491483
1	0xbd9b4361	-0.07581211
2	0xbe738366	-0.23780593
3	0x3e7806ca	0.2422134
4	0x3dd45543	0.10367825
5	0x3d8d8bec	0.069114536
6	0x3e8b609c	0.27222145
7	0x3d75c22b	0.059999626
8	0x3d276ad3	0.04087336
9	0xbdf0b09f	-0.11752438
10	0xbd505c21	-0.05086911
11	0xbd19d2df	-0.037554618
12	0xbdd80871	-0.10548485
13	0x3e0b0884	0.13577467
14	0xbe37de5d	-0.17955919
15	0x3ee305f0	0.44340467
16	0xbeb3a232	-0.35084683
17	0x3e26250c	0.1622507
18	0xbf08d15e	-0.5344447
19	0xbf28f805	-0.6600345
20	0x3c7c4666	0.015397644
21	0xbebb8e3d	-0.36631957
22	0x3d160b59	0.036631916
23	0x3d4c36aa	0.04985682
24	0x3e3b632e	0.18299553
25	0x3e3b4df8	0.18291461
26	0x3b59052f	0.0033114662
27	0xbec00730	-0.37505484
28	0xbc28eac9	-0.010309883
29	0xbd86d716	-0.06583993
30	0x3e57ec45	0.21086223
31	0xbe9fcf17	-0.31212685
32	0x3dcfbdc4	0.10143617
33	0xbe46845a	-0.19386426
34	0x3e8d26e2	0.27568728
35	0xbdc91c41	-0.09819842
36	0xbde42b86	-0.11141114
37	0xbe963b9d	-0.29342356
38	0x3f1ae856	0.60510767
39	0x3f44d6f6	0.76890504
40	0xbde01b11	-0.109426625
41	0xbeb257ab	-0.3483251
42	0x3e1c73ff	0.15278624
43	0x3e8a9aa8	0.27071118
44	0x3e12173f	0.1426668
45	0x3e910b36	0.28328866
46	0xbd9d25ca	-0.07673223
47	0xbce3a054	-0.027786411
48	0x3cd5eb1e	0.02611309
49	0x3e0db82a	0.13839784
50	0xbe99ad90	-0.3001523
51	0xbf131652	-0.57455933
52	0xbee6193c	-0.44941127
53	0xbee140a4	-0.4399463
54	0xbdb5b0b4	-0.08871594
55	0xbeaeb032	-0.341188
56	0xbee99f30	-0.45629263
57	0xbece3a6a	-0.4027894
58	0xbd07417e	-0.033021443
59	0xbe7d8135	-0.2475632
60	0x3e528a31	0.20560528
61	0xbe69658f	-0.22792648
62	0xbb0f8783	-0.002190084
63	0xbec247d1	-0.37945417
64	0x3e0bb0aa	0.1364161
65	0xbeb5239d	-0.35378733
66	0x3d19b3b6	0.0375249
67	0x3e9fc7a0	0.3120699
68	0xbebb8db6	-0.36631554
69	0x3e863865	0.262149
70	0x3da9485b	0.08265754
71	0x3e38356b	0.17989127
72	0xbeb8b378	-0.36074424
73	0xbea6e1c4	-0.3259412
74	0xbd93deaf	-0.07220208
75	0xbd440675	-0.04785772
76	0xbdaf53dc	-0.08560917
77	0x3db1512f	0.08658063
78	0x3d9be6c5	0.07612375
79	0x3f05cb0d	0.52262956
80	0xbecfd038	-0.40588546
81	0x3e6e8c59	0.23295726
82	0x3cdbffc2	0.026855353
83	0x3e411b52	0.18858078
84	0xbdd149ab	-0.10219129
85	0xbeb78761	-0.35845473
86	0xbf086b3a	-0.53288615
87	0xbf17c5f6	-0.5928644
88	0x3d8c0c93	0.06838336
89	0xbea8640b	-0.32888827
90	0x3eb6b854	0.35687506
91	0xbe1dd389	-0.15412726
92	0x3e66438e	0.22486708
93	0xbe809be6	-0.2511894
94	0x3eb91c6c	0.36154497
95	0xbd64e233	-0.055879783
96	0xbe8290e3	-0.25501165
97	0xbe80a537	-0.2512605
98	0x3e0809cb	0.13284986
99	0xbf0a2b6b	-0.539725
100	0xbe87b183	-0.26502618
101	0x3da04e11	0.0782739
102	0x3de5e58e	0.11225425
103	0x3e0b85cc	0.13625258
104	0x3e4af35d	0.19819398
105	0x3e704779	0.23464765
106	0xbeba6077	-0.36401722
107	0x3db80ebd	0.08987186
108	0xbea6a5bd	-0.32548323
109	0x3c257cbd	0.010100541
110	0xbe62cf31	-0.2214935
111	0xbcf2ca54	-0.029637493
112	0xbe99da84	-0.30049527
113	0xbe93f5fa	-0.28898603
114	0x3db3457f	0.0875349
115	0x3e0ee2b1	0.13953663
116	0x3e4612ac	0.1934306
117	0xbda35310	-0.07974827
118	0xbdc679c9	-0.096911974
119	0xbf0f91bc	-0.5608175
120	0xbd2fb939	-0.04290125
121	0xbe191d43	-0.14952569
122	0x3e526980	0.20548058
123	0x3e816fe0	0.25280666
124	0x3e279726	0.16366252
125	0xbdca5edd	-0.09881375
126	0x3dd1c203	0.10242083
127	0xbedc316a	-0.4300645
128	0xbdbae9dd	-0.09126637
129	0x3d36d582	0.04463721
130	0xbe5331d7	-0.20624481
131	0xbda47b60	-0.080313444
132	0x3db9feb3	0.09081783
133	0xbe4ea10e	-0.20178625
134	0xbd1d8c06	-0.038463615
135	0x3f7f88f3	0.9981834
136	0xbe9ca519	-0.3059471
137	0xbea06cae	-0.31332916
138	0x3ed2111d	0.4102868
139	0x3f0156a4	0.5052283
140	0xbe55bdbd	-0.2087316
141	0xbe4bdd85	-0.19908722
142	0x3dd51d4d	0.10405979
143	0x3d9295b4	0.0715746
144	0x3d269b70	0.04067558
145	0xbea364c0	-0.31912804
146	0x3ebef3f7	0.37295505
147	0x3e0da53a	0.1383256
148	0xbeb9a5b5	-0.36259237
149	0xbec23e9b	-0.3793839
150	0xbe8d4a72	-0.2759586
151	0xbf00b87a	-0.5028149
152	0xbef4b1b8	-0.4779184
153	0xbd6dc27b	-0.0580468
154	0xbee86fe5	-0.4539787
155	0x3e93642a	0.28787357
156	0x3e1f50aa	0.15558115
157	0xbdcd2ac4	-0.100179225
158	0x3e21174f	0.15731548
159	0x3e3fd077	0.18731867
160	0xbeaab040	-0.33337593
161	0x3e4c5056	0.1995252
162	0xbe70c8cc	-0.23514098
163	0xbe623b98	-0.22093046
164	0x3d8d451d	0.06897948
165	0xbe704650	-0.23464322
166	0x3e28b296	0.16474375
167	0xba2a0abc	-0.0006486585
168	0xbe683363	-0.22675852
169	0xbd70dd81	-0.058804993
170	0x3d8bd2f0	0.068273425
171	0x3edb94b9	0.42886904
172	0xbe775d62	-0.24156716
173	0xbb6ccc32	-0.0036132452
174	0xbe0eec4b	-0.13957326
175	0xbe1e3081	-0.1544819
176	0xbf07d05b	-0.530523
177	0xbd3ce715	-0.046118814
178	0xbe360fc7	-0.17779456
179	0x3e8fa355	0.280543
180	0x3d2832b1	0.041063968
181	0xbe8c65b8	-0.27421355
182	0xbea36d57	-0.31919357
183	0x3e98ed02	0.29868323
184	0x3e77cba6	0.2419878
185	0x3dd2c97d	0.10292337
186	0xbed74ee6	-0.42052382
187	0xbf16bda8	-0.5888314
188	0x3df17210	0.11789334
189	0xbe9b8038	-0.3037126
190	0x3e137d07	0.14403163
191	0x3c68271e	0.0141694825
192	0xbe17801d	-0.14794965
193	0x3e57893b	0.21048443
194	0x3ecda57b	0.40165314
195	0x3f56e695	0.8394559
196	0x3debaf43	0.11508038
197	0x3c852aa0	0.016255677
198	0x3d6223a9	0.05520979
199	0x3ee74e86	0.45177096
200	0xbecf67aa	-0.40508777
201	0x3db766a2	0.089551225
202	0xbd488fa7	-0.048965123
203	0x3f040378	0.5156779
204	0x3d75d0ff	0.060013767
205	0x3e305035	0.17218097
206	0xbeeb8304	-0.45998394
207	0xbed4db55	-0.41573587
208	0xbe9cb2a2	-0.30605036
209	0xbec68e8f	-0.3878064
210	0xbeca9bc2	-0.3957196
211	0xbf83a46f	-1.0284556
212	0xbd69b590	-0.057057917
213	0x3deb51fc	0.11490247
214	0x3e87c977	0.26520893
215	0x3f11b97c	0.5692365
216	0x3dfb09ef	0.12257754
217	0xbee64721	-0.44976142
218	0xbf022ab2	-0.508464
219	0xbfc02cff	-1.5013732
220	0x3e88fea1	0.26756766
221	0x3e738663	0.23781733
222	0x3e9ee685	0.31035247
223	0x3f925f48	1.1435328
224	0x3e0a1ffb	0.13488762
225	0xbedb81e0	-0.42872524
226	0xbe63e937	-0.22256933
227	0xbfa89efd	-1.3173519
228	0xbe973ae1	-0.2953711
229	0xbe129708	-0.14315426
230	0x3bf73723	0.0075444146
231	0xbce782ce	-0.028260615
232	0xbcb4564e	-0.02201381
233	0x3c8eba88	0.01742293
234	0x3e9da73d	0.30791655
235	0x3fd68686	1.6759803
236	0xbefda6e8	-0.49541402
237	0xbd02ae18	-0.03190431
238	0x3f209861	0.6273251
239	0x400ff8fa	2.2495713
240	0xbe674242	-0.22583869
241	0xbe3bb260	-0.18329763
242	0x3eb2ad9f	0.34898087
243	0x3f3abb8f	0.7294244
244	0x3de0ead9	0.10982294
245	0x3dd53ee7	0.10412388
246	0xbdb64b51	-0.08901084
247	0x3f0ba993	0.54555625
248	0xbe024839	-0.12722863
249	0xbf0701d8	-0.5273719
250	0xbf274d06	-0.65351903
251	0xc00d5e9f	-2.2089002
252	0xbf12a2ae	-0.5727948
253	0x3c3b5fa9	0.011436381
254	0xbf12be88	-0.5732198
255	0xbe91669c	-0.28398597

bias f4 [5]
0	0x40218bf5	2.5241673
1	0x400a0074	2.1562777
2	0x40887aa2	4.26497
3	0x3f934f41	1.1508561
4	0x400540c1	2.0820773
